…
out(0.5))\nsport_model.add(Flatten())\nsport_model.add(Dense(32, activation = 'linear'))\nsport_model.add(LeakyReLU(negative_slope = 0.1))\nsport_model.add(Dropout(0.5))\nsport_model.add(Dense(nClasses, activation = 'softmax'))\n\n\nsport_model.summary()\n\nModel: \"sequential_1\"\n\n\n\n┏━━━━━━━━━━━━━━━━━━━━━━━━━━━━━━━━━━━━━━┳━━━━━━━━━━━━━━━━━━━━━━━━━━━━━┳━━━━━━━━━━━━━━━━━┓\n┃ Layer (type)                         ┃ Output Shape                ┃         Param # ┃\n┡━━━━━━━━━━━━━━━━━━━━━━━━━━━━━━━━━━━━━━╇━━━━━━━━━━━━━━━━━━━━━━━━━━━━━╇━━━━━━━━━━━━━━━━━┩\n│ conv2d_1 (Conv2D)                    │ (None, 21, 28, 32)          │             896 │\n├──────────────────────────────────────┼─────────────────────────────┼─────────────────┤\n│ leaky_re_lu_2 (LeakyReLU)            │ (None, 21, 28, 32)          │               0 │\n├──────────────────────────────────────┼─────────────────────────────┼─────────────────┤\n│ max_pooling2d_1 (MaxPooling2D)       │ (None, 11, 14, 32)          │               0 │\n├──────────────────────────────────────┼─────────────────────────────┼─────────────────┤\n│ dropout_2 (Dropout)                  │ (None, 11, 14, 32)          │               0 │\n├──────────────────────────────────────┼─────────────────────────────┼─────────────────┤\n│ flatten_1 (Flatten)                  │ (None, 4928)                │               0 │\n├──────────────────────────────────────┼─────────────────────────────┼─────────────────┤\n│ dense_2 (Dense)                      │ (None, 32)                  │         157,728 │\n├──────────────────────────────────────┼─────────────────────────────┼─────────────────┤\n│ leaky_re_lu_3 (LeakyReLU)            │ (None, 32)                  │               0 │\n├──────────────────────────────────────┼─────────────────────────────┼─────────────────┤\n│ dropout_3 (Dropout)                  │ (None, 32)                  │               0 │\n├──────────────────────────────────────┼─────────────────────────────┼─────────────────┤\n│ dense_3 (Dense)                      │ (None, 5)                   │             165 │\n└──────────────────────────────────────┴─────────────────────────────┴─────────────────┘\n\n\n\n Total params: 158,789 (620.27 KB)\n\n\n\n Trainable params: 158,789 (620.27 KB)\n\n\n\n Non-trainable params: 0 (0.00 B)\n\n\n\n\nfrom keras.utils import plot_model\n\nplot_model(sport_model, to_file='modelo_red_neuronal.png', show_shapes = True, show_layer_names = True)\n\n# Mostrar la imagen gene
…
